saved_models/goalGAIL_final.pt (torch, 950086 bytes, 192 tensors)

tcn_encoder_x.network.0.conv1.weight f4 [64, 3, 3]
00000000: f8db 3abe aa96 a13c 0c1b 973d 1cea cc3b
00000010: f9d2 d73c 7fac efbc 9ccb d5bd 6ce1 843d
00000020: 9e39 fe3c 1736 953e ead7 acbd 235a b2bd
00000030: 5b3a 14bc e7be 19bd df81 e3bc 8d93 3f3e
00000040: 35b8 be3c 3559 57be 2436 c3bd efaa 07bb
00000050: 385f f73d 4c87 36bd 561b 5f3d 16cb 3abd
00000060: 2e91 1a3e 8091 27bc 5daf 81ba b2b3 4dbd
00000070: 3a52 9dbd c90a 5dbe 46b9 473e d428 993c
00000080: e6a6 08be 99d8 a93c c5af dabd 299a b43c
00000090: 4bd9 ed3c eec4 6fbc c20c 83ba 9d8e 05be
000000a0: 6515 22be 98d6 12be 88e1 05be c8ea 6c3d
000000b0: abde 4cbd d17d 2b3e 0349 babd 615d 94bd
000000c0: 1ff1 cfbd 0a44 57bc a841 db3c 1dae 99bd
000000d0: 8eb0 213d f158 02bc 1f38 e5bc f5ee f03d
000000e0: 571c 61bb 7954 783b 2e34 ee3c 200c 013e
000000f0: 2729 0c3c 1afa 3a3d aa5f b9bd 3364 853e
00000100: 4912 de3d 7f6f 37bc ddb3 773d 0d23 c33d
00000110: 904b df3c 3e38 b2bd 4e8d c7bd 7230 ddbd
00000120: da37 fabc 8af8 78bd b7fa bd3d d101 fdbd
00000130: ba98 8a3d 196a 223d 5265 10be d4be 0dbd
00000140: 9eb9 2e3e 81a8 8fbd 69d5 80bc 68a8 af3d
00000150: f4db ecbd 132b 9e3d a1db 2c3d 5477 afbc
00000160: 9e29 b53d 8736 86bd 6d4e f4ba efbd 00be
00000170: 8901 343e ac65 c23d 9b87 7dbd 13d1 73bd
00000180: e998 15be 252b 773d 93fd 8f3d 7316 4b3c
00000190: cfb7 b53d 9a99 c03c 3b0d cf39 aca1 413e
000001a0: cb9b 7b3d 51b7 bcbd 48fa dcbd de8f 8b3d
000001b0: 129c 8cbe 0d41 8ebd f07d d4bc e583 c2bd
000001c0: c3c9 90bb caf5 023e 9cb0 5abd 2d42 e33b
000001d0: 8967 3a3d 8211 08be 643d 8d3d 7a58 473d
000001e0: 5a47 da3d 8746 a4bd d98b aabc 6305 0239
000001f0: b0a0 9c3d a307 97bd e745 723d 742f 79bd
00000200: a66b 953a 5e38 c93d 3d4e c1bc 6179 a4bd
00000210: 2734 0ebe c6e0 a33d b929 673d c482 bd3c
00000220: c633 85bc b4bd 76be ac38 da3d 6a6d 44be
00000230: ff82 13bd f50c 4f3d 2881 f4bd 33a0 7dbe
00000240: 2b19 ba3d 5aba 2ebd 051c 36bd 3762 113e
00000250: ca12 14be f3ea 0d3c ab55 883d 555e 2fbd
00000260: 44ac c2bc 8294 e4bc 81f0 993d e6e3 c1bc
00000270: f0c5 04be 36b7 07be 3ce0 25bd 7e32 183d
00000280: 500d dbbd c54f 9fbc baea 85bd ff60 d9bc
00000290: a343 0bbe 2ab6 323e d3a2 8d3d ba3f 97bd
000002a0: eff0 4ebb 3bd2 333b d7c7 23bb 1624 bdbd
000002b0: 662a f6bd 6bda 12be a890 ee3d 7cc8 503d
000002c0: 079b f53d 8564 793e 2269 813b 7e3b 81bd
000002d0: 1968 94bc 1aec a13d 5858 51bc 5733 873e
000002e0: 418d 223d 1df2 bcbd 9721 203b 7d5f d2bd
000002f0: 7739 c3bd e425 81bd aebe 11bd ad55 ddbc
00000300: e549 3fbe 8dc9 9dbd b839 123d 10bd 413d
00000310: 8f92 d9bd fde4 c73c f852 15be 7467 243e
00000320: 7e71 c9ba 9718 233d 9887 d4bc 6a1c abbb
00000330: 2480 1ebd 9cfa 2fbc d494 423d 84a8 ee3d
00000340: bdc9 11bd 4e3b 5fbd 525a febd d588 f63d
00000350: 8ccb 613b 1420 843c 650c f83d bbc8 03be
00000360: 3c72 b9bd e1f0 f53d 6c55 473d 70a3 233e
00000370: 22df e1bd 57a8 85bd a707 713d 5bfb d83d
00000380: 9acc 11be fc63 c33c 76c1 8ebd 9528 3a3d
00000390: a5dc b83d a7a2 8ebb f8d2 abbd b99a 1d3e
000003a0: f70a 4f3d 118c 50be 897e 4b3c 79e8 793e
000003b0: 326c 25bc 6492 1fbe 577a a43c 8a39 b7bd
000003c0: 53f0 acbc 8a7a 9c3d b8fd 8fbd 1fa9 5a3e
000003d0: a9c5 73bd 6e43 1dbe cf62 e53d 75f6 2f3b
000003e0: 0991 e5bd 1044 483c 8a5e 3e3d 24be ebbc
000003f0: f113 053d 66e9 623b 4945 1bbd ca66 c33d
-0.18247974 0.019725163 0.07378206 0.006253494 0.026345717 -0.029257057 -0.10439226 0.06488308
0.031033333 0.2914283 -0.0843962 -0.087085985 -0.009047116 -0.037535574 -0.027771888 0.1870863
0.023281196 -0.21030124 -0.09531811 -0.002070125 0.120787084 -0.044562623 0.05446943 -0.045603834
0.15094444 -0.010227561 -0.0009894181 -0.0502202 -0.07681699 -0.21586145 0.1950427 0.018696226
-0.13344917 0.020733165 -0.10678057 0.022046166 0.029034277 -0.014634354 -0.0009998309 -0.13042684
-0.15828474 -0.14339674 -0.13074315 0.057841092 -0.05001704 0.16747214 -0.09095957 -0.07244373
-0.10153412 -0.01313878 0.026764706 -0.075039126 0.039475016 -0.007955776 -0.027980862 0.117643274
-0.0034349167 0.0037892147 0.029077616 0.12602282 0.008554733 0.04564867 -0.090514496 0.26053008
0.10843331 -0.011196016 0.060474265 0.0952817 0.02725771 -0.087021336 -0.097437486 -0.10800256
-0.03054421 -0.0607839 0.09276336 -0.12353862 0.067674115 0.039651964 -0.1410115 -0.034605816
0.17062995 -0.070145614 -0.015726762 0.08577043 -0.1156539 0.077230595 0.042201642 -0.021419205
0.088458285 -0.06553369 -0.0018639095 -0.12572454 0.1757871 0.094920486 -0.0618969 -0.05952556
-0.14609112 0.06034388 0.07030787 0.012395489 0.08872949 0.023510743 0.00039491974 0.18909329
0.061427873 -0.09214652 -0.10789925 0.0681455 -0.27462822 -0.06946001 -0.025938958 -0.09497813
-0.004418583 0.12789074 -0.053391084 0.006935379 0.045508895 -0.13287929 0.06896475 0.048668362
0.106581405 -0.080212645 -0.020818638 0.00012399773 0.07647836 -0.073745035 0.059148695 -0.06083627
0.001139988 0.09825204 -0.023596877 -0.08030964 -0.13887082 0.080018565 0.056436274 0.023133643
-0.016260039 -0.24095803 0.106553406 -0.19182363 -0.0360136 0.050549466 -0.11938697 -0.24768142
0.09086832 -0.042658187 -0.044460315 0.14197622 -0.14460292 0.008661973 0.06656965 -0.04281457
-0.023763783 -0.027902845 0.075165756 -0.02366824 -0.12966132 -0.13253483 -0.04049705 0.037157528
-0.106958985 -0.019447217 -0.06538911 -0.02653551 -0.1360002 0.17452303 0.06915822 -0.07385202
-0.0031576713 0.002743854 -0.002499094 -0.092353985 -0.120198056 -0.14341132 0.11648685 0.050972447
0.1199246 0.24354751 0.0039493004 -0.06310175 -0.018116044 0.07906361 -0.01277741 0.26406357
0.03968549 -0.09225867 0.0024434084 -0.10272119 -0.09532445 -0.06306055 -0.035582237 -0.027018392
-0.18680532 -0.077044584 0.035699576 0.047299445 -0.10623657 0.024401182 -0.14582431 0.16055089
-0.0015368906 0.039818373 -0.025943562 -0.005221893 -0.038696423 -0.010740902 0.047505215 0.116532356
-0.035592783 -0.054499917 -0.12419571 0.120378174 0.0034453599 0.016128577 0.12111739 -0.12869541
-0.090549916 0.12008835 0.04866545 0.15980315 -0.11028887 -0.06526249 0.05884519 0.10594817
-0.14238206 0.023851387 -0.069704935 0.04544886 0.090264596 -0.0043528858 -0.083898485 0.15391053
0.050547566 -0.20365931 0.012420305 0.24405088 -0.010096597 -0.15583187 0.020077867 -0.089465216
-0.02111069 0.0764056 -0.07030815 0.21353577 -0.059514675 -0.15357754 0.11200487 0.002684978
-0.11209304 0.012223259 0.04647688 -0.02877719 0.03248972 0.003462398 -0.037907872 0.0954109

tcn_encoder_x.network.0.conv1.bias f4 [64]
00000000: a419 39be 9afe 3f3d 1919 09bd 1ebe 85be
00000010: 0052 f73c 5bc2 5cbe 0cbd 32be a667 e8bd
00000020: bb16 0ebe 7d1b 5fbe e843 213e 60a8 563d
00000030: 2483 35be 0c6d 88be 432b 59be a44f af3c
00000040: fcb8 4fbe cede 90be 8a05 7fbe 55b5 833e
00000050: 5b46 88be 354e 7fbe 8c4d ac3d 0a03 6b3e
00000060: 0111 6fbe c5ea b1be 08f6 083e b926 e7bd
00000070: 5174 1cbe 3a71 023d 3d12 43be 5328 a03e
00000080: 668b 913e 80d7 823c c545 1bbe da5c c83b
00000090: 5d45 0bbd 9b9e a3bc 04f7 9fbc a137 ac3d
000000a0: 1232 8dbc 770a 613d 531b 6fbe b42f ffbd
000000b0: 910a 4c3d 0043 3fbe b322 77bb 5f64 133e
000000c0: 2a4f 423e 8f68 46be ea59 12be 89a9 3d3e
000000d0: bddb 8dbe 9259 ebbc 7a34 cebd 53cd 8d3e
000000e0: 991b 983d 1a48 973e 8a25 a7bd 5add 61be
000000f0: e468 7fbe 9d97 483d 4b07 89be 210b b13c
-0.18076187 0.046873666 -0.0334712 -0.2612161 0.030190468 -0.21558516 -0.17454928 -0.11347894
-0.13875858 -0.2178783 0.1574856 0.05240667 -0.17725807 -0.26645696 -0.2120791 0.02140028
-0.2028541 -0.28294986 -0.24904457 0.25724283 -0.26616177 -0.24932177 0.084132284 0.22950378
-0.2334633 -0.34749427 0.13375103 -0.11286683 -0.15278746 0.031846263 -0.19049926 0.31280765
0.28426665 0.015971899 -0.15163334 0.0061145844 -0.034001697 -0.01997309 -0.019526966 0.08409048
-0.01723579 0.05494162 -0.23350267 -0.124602705 0.049814764 -0.18677902 -0.0037709891 0.14393757
0.18975511 -0.19375823 -0.14292112 0.18521704 -0.2770671 -0.028729234 -0.10068603 0.27695712
0.07427139 0.29547197 -0.08161457 -0.22057095 -0.24942356 0.048972715 -0.26763377 0.021611752

tcn_encoder_x.network.0.bn1.weight f4 [64]
00000000: 9b16 733f 6a45 713f d6e2 783f e6a7 643f
00000010: 242f 753f 9a70 753f 1720 683f 1e41 693f
00000020: 1615 973f dc74 823f acdf 6a3f 4e63 773f
00000030: fafe 713f e57d 8b3f 94ec 8c3f f3d8 723f
00000040: e843 923f b8d0 6c3f 6a3d 663f 5fe2 6b3f
00000050: 57ac 733f 3635 6d3f a3ed 823f 11a2 8d3f
00000060: 50bd 6f3f bc57 ad3f 4033 6f3f eed4 863f
00000070: 47e5 833f b35f 613f a9b8 573f 445d 703f
00000080: c22d 673f fe4b 9e3f 5c5d 703f cfcf 703f
00000090: 2131 863f 8277 5c3f 0fa1 623f c9d8 753f
000000a0: 7bfc 883f 982d 633f 73cd 753f 47ef 753f
000000b0: b59f 703f 576b 783f 104d 7e3f ea4d 833f
000000c0: c981 6b3f 28cf 663f 1d71 783f 4f1d 633f
000000d0: 714e 6a3f 9fdd 5f3f 99e5 703f 03f3 6c3f
000000e0: b8c9 6c3f 689c 733f d10a 773f 8fbb 773f
000000f0: d260 643f adc6 743f 7de9 743f 637a 793f
0.9495637 0.9424654 0.97221124 0.8931869 0.95775056 0.9587494 0.90673965 0.91114986
1.180331 1.0191913 0.91747546 0.966359 0.9452969 1.0897795 1.1009698 0.9486229
1.1426973 0.9250598 0.8993746 0.9214229 0.95184845 0.9265932 1.0228771 1.1065084
0.9364824 1.35424 0.93437576 1.0533731 1.0304345 0.8803665 0.84266144 0.9389231
0.90304196 1.2366941 0.93892455 0.9406709 1.0483743 0.86119854 0.88527006 0.9603391
1.0702051 0.88741446 0.96016616 0.96068233 0.93993694 0.9703879 0.9933634 1.0258152
0.9199491 0.90159845 0.970476 0.88716596 0.9152594 0.8744754 0.9410034 0.92558306
0.924953 0.9516053 0.9650088 0.96770567 0.89210236 0.95615655 0.95668775 0.9745237

tcn_encoder_x.network.0.bn1.bias f4 [64]
00000000: c1d8 09be feea a3bd a9bd 4fbd 3bf8 f0bd
00000010: 835e 7bbd 645e 95bc ea7e 11be a5e8 1cbe
00000020: 5cf4 5d3d 10a5 683d f62c 8ebd 097c 04be
00000030: bf25 d2bd def3 caba b2ef a33d dc0a 80be
00000040: fa13 9fbc 4de7 e2bc 64ff 2dbe e347 f3bd
00000050: e9f3 f5bd a500 99bd 8704 a5bd f003 95bd
00000060: 6af3 34be 97c1 5d3e dd20 d1bd 38eb c6bd
00000070: 7970 fabc 92c5 00be 5447 a5bd 58b7 f0bd
00000080: a350 cfbd 7db1 d73c a4fe 9abd 50f5 0ebe
00000090: c996 053e fbae a7bd 8bde 2dbe 25b2 d9bd
000000a0: 6a9b 423d 42e1 02be 9940 2fbe 91a7 15be
000000b0: 4f79 f83c 4a75 1abe 2f53 043a e0b8 a0bc
000000c0: 00b7 d2bd aef1 cebd 7af5 a5bd 3655 45be
000000d0: d2fa 883d 2752 fdbd 9656 4bbe a786 21be
000000e0: fac3 ecbd 0353 c0bd 0dc2 acbe 20d6 d3bc
000000f0: 23ad b7bd 1c6a 26bd 4da2 90bb 7422 b43c
-0.13461591 -0.080038056 -0.050717983 -0.11766096 -0.06136943 -0.018233486 -0.1420857 -0.15323122
0.054188117 0.05679804 -0.06942169 -0.1293794 -0.10261106 -0.0015484055 0.08004703 -0.25008285
-0.019418705 -0.027698183 -0.16991955 -0.11878946 -0.12009413 -0.07470826 -0.08057504 -0.07276142
-0.1767098 0.2165588 -0.10211346 -0.09712833 -0.03057121 -0.12575367 -0.080702454 -0.1175372
-0.10122802 0.02632975 -0.075681 -0.13960767 0.13045801 -0.08187672 -0.16979425 -0.106296815
0.047511496 -0.12781242 -0.17114486 -0.14614703 0.030331282 -0.15083805 0.0005047796 -0.019619405
-0.10288811 -0.101046905 -0.081034616 -0.19270787 0.06688465 -0.12369185 -0.19857249 -0.15774022
-0.11560817 -0.09390833 -0.337418 -0.025858939 -0.0896857 -0.040628538 -0.004413879 0.021989085

tcn_encoder_x.network.0.bn1.running_mean f4 [64]
00000000: 4fe3 38be dab0 403d f340 12bd 295c 85be
00000010: 1c61 0d3d 7f75 5bbe eaf5 32be bfd2 e0bd
00000020: 1dbd 0dbe 670d 5fbe 7b95 213e 3469 5a3d
00000030: 4d22 35be 5b80 88be 2630 59be db1d e13c
00000040: f2d9 4fbe e345 8fbe 97d8 7fbe b476 813e
00000050: 7045 87be 0939 7dbe 153f ac3d 0bdd 6a3e
00000060: 929f 6fbe 7805 b2be 0c3b 0a3e 7299 e8bd
00000070: 77cf 1cbe d7fe 123d 68bf 44be a610 a23e
00000080: 03b5 923e 224f 853c d219 1bbe 5d85 f13b
00000090: 639b 0abd 0ffb babc 1d2e 90bc ef18 ac3d
000000a0: 890c 7dbc e98c 6e3d ac12 6dbe 33ba f0bd
000000b0: 3450 453d 9ea8 3cbe feff 72bb 1e89 153e
000000c0: b91e 453e 4aff 44be 5e14 11be d782 363e
000000d0: a69c 8cbe fb31 efbc fff8 d3bd 5f42 8f3e
000000e0: aa0c 9d3d 98ee 973e 2b53 b9bd c9e7 61be
000000f0: 11df 80be 54fd 5c3d 0f27 8abe 4b0b b43c
-0.18055461 0.04704366 -0.03570647 -0.26046875 0.03451644 -0.2143154 -0.17476621 -0.109776966
-0.13841672 -0.21782456 0.15779679 0.053322986 -0.17688866 -0.26660427 -0.21209773 0.027480057
-0.20297983 -0.27983007 -0.24984966 0.25285876 -0.26420164 -0.24728788 0.084104694 0.22935884
-0.23400715 -0.34769797 0.13499087 -0.11357392 -0.15313517 0.035887565 -0.1921364 0.31653327
0.28653726 0.016273085 -0.15146568 0.0073706345 -0.033839595 -0.022824792 -0.017600114 0.08403193
-0.015444883 0.05823985 -0.23151654 -0.11754265 0.04817219 -0.18423697 -0.0037078853 0.14603087
0.19250001 -0.1923801 -0.14167926 0.17823349 -0.27463263 -0.029198637 -0.103502266 0.27980325
0.07668431 0.2967422 -0.09049066 -0.22061075 -0.25170186 0.05395253 -0.26982924 0.021978041

tcn_encoder_x.network.0.bn1.running_var f4 [64]
00000000: e9d8 043c cb88 cf3c d92b 9d3c 2959 f73d
00000010: 6804 513e 509c 3c3c 41ce e83c a2d4 5e3e
00000020: 2f21 783b ff37 cd3a de6b dd3b 61fa 993d
00000030: 4138 003e 64a1 0a3b 2d46 fc3a 1b02 213e
00000040: 54bb d03a 448a d33d 6fd3 aa3d 4ba2 8f3e
00000050: 29bc 893d 6e16 653d 6455 d43a f1fc 393b
00000060: e5d5 323c 2228 9a3b 454d f23d 07de a53b
00000070: b8bf 1b3b e1fa d93d eaa5 1e3e 961e 9e3d
00000080: 09cf 093e 33de c63b f67e 883c 6257 a93d
00000090: 1049 a33b 256a 4b3d a654 733d f8c0 923d
000000a0: ec4f ae3c dbe9 593e d44d 983d ef63 1b3e
000000b0: 8a0e 113e 984e 173e 4718 293b 1527 003d
000000c0: 4745 7c3d 253b a43c b85d 473d 9ac7 493e
000000d0: 478d 043e 4294 7a3d 66d0 433d a7e0 953d
000000e0: e316 1e3e 76a6 fc3c 379c 913e e62f 9b3b
000000f0: 1cf4 473d efdd ac3d 7848 5e3d 5eb5 753b
0.008108356 0.025333783 0.019185947 0.12077553 0.20411837 0.011511877 0.028418662 0.217608
0.0037861576 0.0015656947 0.0067572435 0.07518459 0.12521459 0.0021153325 0.0019246988 0.1572346
0.0015924969 0.103291065 0.08341109 0.28053507 0.06725342 0.055929594 0.0016199765 0.0028379525
0.010915254 0.0047044912 0.11831144 0.005061868 0.0023765396 0.106435545 0.15492979 0.077206776
0.13457884 0.0060689687 0.016662102 0.0826862 0.004983075 0.049661774 0.0594069 0.07165712
0.021278344 0.21280615 0.074367195 0.1517484 0.14165702 0.14776075 0.0025801824 0.03128727
0.061589506 0.020047734 0.04867336 0.19705048 0.12944518 0.061176546 0.047806166 0.0731824
0.15438418 0.030841094 0.28439495 0.0047359345 0.048816785 0.08440768 0.05426833 0.0037492136

tcn_encoder_x.network.0.relu1.weight f4 [64]
00000000: 5519 863d b009 dc3d 6a4b cf3d 3700 fe3d
00000010: 8872 9a3d 6fe0 073e 3ecd a63d d007 ec3d
00000020: 6456 c83d 2214 e33d 4ec7 323e 8914 d93d
00000030: 0555 603d bba3 393d e2a5 443d 637f 0b3e
00000040: fbc3 2a3d a0b2 ea3d ad13 1a3e f3f0 443e
00000050: 765b f73d 1240 f83d c922 893c 0903 c9ba
00000060: 03cd 033e 1572 9b3d d7b0 b83d 20b0 463e
00000070: 9a46 213e ebd6 023e 9e04 253e e104 0f3e
00000080: 5091 b93d a156 e23d 6059 5a3e c1a2 eb3d
00000090: 5bb5 003d b56e 113e ce66 003e c764 c43c
000000a0: 5c84 a63c c95e 0a3e 059f a53d 07fd b93d
000000b0: 8c63 c73d f2e4 093e 1a46 eb3d 986d b33d
000000c0: ff3d 073e 1b6e 1a3e 7ead 1a3e 6f02 333e
000000d0: 6cd5 053e 6b1b 033e 584f e43d b740 023e
000000e0: 314f d13d c614 c23d 3b6b e23c 2b9b b73d
000000f0: d162 953d d483 1e3e 4b37 143d a140 0e3e
0.065478005 0.10744035 0.10121806 0.12402385 0.07541376 0.13269208 0.081446156 0.115249276
0.09782103 0.110878244 0.17458841 0.1059962 0.05476858 0.04532216 0.04800976 0.13622813
0.041690808 0.11459851 0.15046568 0.1923254 0.12077992 0.121215954 0.01674022 -0.0015335988
0.12871175 0.07590119 0.090181045 0.19403124 0.15749589 0.12777297 0.16115043 0.13966705
0.09060919 0.110516794 0.21323156 0.11505652 0.031422954 0.14202388 0.12539217 0.023973836
0.020326786 0.1351272 0.08086971 0.09081464 0.09735784 0.13466242 0.1148798 0.08761138
0.13207243 0.15081064 0.15105245 0.17481397 0.13069695 0.12803428 0.11147946 0.12719999
0.10220183 0.094766185 0.027639022 0.08965143 0.07294238 0.15479976 0.036185544 0.13891841

tcn_encoder_x.network.0.conv2.weight f4 [64, 64, 3]
00000000: 5100 a43d 9797 463d 20cc c13d 6ee9 71bc
00000010: 7488 8f3d 1dcc bebd d1be e23d 39da 633e
00000020: f1b6 4f3d 8b21 c5bc 51f9 293d 0409 283d
00000030: 265d afbd 255a 8c3d 822a dabd 9efa 2a3e
00000040: 67ec 23bd aaa1 97bd 4487 203e 8976 4a3e
00000050: 7d70 96bd dfff d43c 2db9 9d3c 9472 02ba
00000060: 1692 463d c839 6a3d 6e8e b6bc eb63 3fbd
00000070: bf2f 5c3e 4d0b b5bd d384 5abd 8c50 2fbd
00000080: d34e a0bd a019 d1bd 96ec 14be 632c 2ebe
00000090: 180c 6cbd 0cf2 bebc 85e5 6c3e 8ac3 4bbd
000000a0: c627 29bd df6f f1bd 1224 0abe ad26 40bd
000000b0: ed90 cbbc 24b4 173e 2bf7 db3a 3a64 06bc
000000c0: d48f 6c3d ae6a 9e3d 5d4d c33d 114a ca3c
000000d0: 7344 96bc 3df7 993b 3ab0 d7bd 78a8 993d
000000e0: 96ef c03d b779 233e 18e7 2d3e c10e e5bb
000000f0: 6900 9dbd 28de 58bd b6cc 7bbd da53 603e
00000100: 3360 c23d ecad 9a3d cf00 823d 5570 2c3d
00000110: 95b0 9a3d 0369 243e eb9e 233e 2816 313d
00000120: 89d4 413e 51da fc3d 078f bd3d 8567 2bbd
00000130: bbea d13c 717e 113e dfd5 83bd 66f1 6b3d
00000140: 8a94 ea3d 574a 5f3e 93e5 93bc f80c 053e
00000150: 923c 3fbc fbdd d83d 310e 903d 61cf d2bd
00000160: f43e a03c e860 8b3d f171 a8bd e18b 873d
00000170: d95e 203d 93d2 123e 9b06 5e3e c4aa dc3c
00000180: 73e6 d1bc c2f8 b5bb 1e47 863d 9654 a73d
00000190: 9df0 9d3d 47d4 8e3e 8a09 e93d c4fa 15bd
000001a0: 4541 3c3d 7042 a73d 96a9 b63d 4834 18be
000001b0: 2e54 513c e865 473b eca5 bbbd 9c63 8ebb
000001c0: b137 38bd e49e 143c 2c35 bdbb f3cb ecbb
000001d0: 5aea 8e3d b6b9 3cbe c499 0cbd 80d5 c23d
000001e0: fe36 74bd e17b 7ebc d5ba df3d 55dd c1bd
000001f0: 9b3c 17be 90b6 843c 64d5 133d a302 ce3d
00000200: 61e2 553d 431f cdbd 320c 87bd 22d4 a0bc
00000210: a575 31ba f889 02be 9da8 9239 fa64 483e
00000220: 8071 63bc 9783 8a3d 5e7f 8c3d 64af 353e
00000230: 84ad bfbd a059 d33d 511c 1f3d ba0f a83d
00000240: 77bb 423d b2b4 2d3d fb80 7b3d aac2 6bbd
00000250: eef2 25be 221d 4cbd a179 b23d 6ca8 5f3d
00000260: 07b0 0abd db7f 5c3d 789f 653d e399 60bd
00000270: c7d8 88bd be57 703c 9f6f 0bbe 6afd 913b
00000280: f04f cabc fde7 ee3c 7e22 153d 3911 283e
00000290: 9c54 dbbd 3ad6 89bc 79af 863d 13f2 a73c
000002a0: 0c20 0c3e 34d6 3f3e bba6 443d 70fc dcbd
000002b0: bbdd 7bbd 7d7c 723d 3ead 203e 9678 cfbd
000002c0: f2b4 723d 1da9 1c3e 8c2b cf3d be7e 313e
000002d0: 985d 52bd f3fb 1dbd 2ab7 d4bc b45d 0b3e
000002e0: 0d13 2c3e c3f0 403e 185d 9a3d 473b 373c
000002f0: 3fb1 a43d 67af 3ebd e03f 953d 5bd5 7b3c
00000300: 2c07 39bc 80cc 32bd 1d9a 5a3d 7b39 1d3d
00000310: 2906 fe3d dbe3 f13c 5e24 14be 7064 37bd
00000320: 9c4a 403d cece 113e 5b40 5b3d 77e5 793d
00000330: d2d7 133d ba86 b3bc 24fd 003b 45cd 193e
00000340: 70be b4bc 3de1 0a3d 6aa0 95ba bd37 ebbc
00000350: 843e 6f3d 9f18 edbd 7437 89bd 864f 1bbd
00000360: 9f1f f0bd 9169 4fbd 2ec6 643d ce96 a1be
00000370: 481d ceba 2052 c0bd f58b ff3d f2f9 6cbc
00000380: c0ee 8abd 9445 a7bd f17f 4bbe 2701 29be
00000390: 22b1 bc3d 59e4 fe3c 86fe 53bd 0919 b83d
000003a0: d67e 54bd 62a5 743c afa6 71bd 63b1 0bbd
000003b0: f01e d7bd 50c5 25be 7f70 6bbd dd40 703d
000003c0: 81f2 e7bd d6a9 34be da59 e3bd 55f2 133d
000003d0: 027c 163e 366a 503d c2f9 20bd e11c 0b3e
000003e0: 6826 613e 4e42 e03c db38 993d b397 703c
000003f0: 416b 893c 4777 713c 247b a9bd 0225 c13c
0.08007873 0.04848441 0.09462762 -0.014765127 0.07008448 -0.09316275 0.110715516 0.22251214
0.050711576 -0.024063846 0.041497532 0.041024223 -0.085626885 0.06853131 -0.10652639 0.16697165
-0.040020373 -0.07403882 0.156766 0.1977178 -0.07345674 0.026000915 0.019253338 -0.000497618
0.048479162 0.05718401 -0.022284713 -0.04672615 0.21502589 -0.08840046 -0.053349327 -0.042801425
-0.078275345 -0.10209966 -0.14543375 -0.1700912 -0.05762872 -0.023308776 0.2313443 -0.049747027
-0.041297697 -0.11788916 -0.13490322 -0.046911884 -0.02484938 0.14814812 0.0016782036 -0.008202607
0.057754353 0.07735191 0.0953624 0.02469352 -0.018343186 0.0046986626 -0.105316594 0.07502836
0.094206974 0.159644 0.16982687 -0.006990284 -0.07666094 -0.05294624 -0.061474524 0.21906987
0.09491005 0.07552704 0.063478105 0.042099316 0.075532116 0.16055684 0.15978591 0.04323402
0.18928732 0.12346328 0.09255796 -0.04184677 0.025624624 0.1420839 -0.06437277 0.057603262
0.11454113 0.21805702 -0.018053805 0.12993228 -0.011672156 0.105892144 0.07033957 -0.10293461
0.019561268 0.06805593 -0.082248576 0.06618477 0.039152954 0.1433814 0.21682207 0.026936896
-0.025622582 -0.005553336 0.06556533 0.0817043 0.07711909 0.2789633 0.113787726 -0.0366161
0.045960683 0.08166969 0.08919065 -0.14863694 0.012776418 0.003042573 -0.091625065 -0.0043453705
-0.044974986 0.009071086 -0.005774161 -0.007226461 0.06978293 -0.18430218 -0.03432633 0.09513378
-0.059622757 -0.015532465 0.10924307 -0.09466044 -0.14769213 0.016200334 0.036092177 0.10059097
0.052217845 -0.10015728 -0.06594123 -0.019632403 -0.00067695446 -0.12747943 0.00027972917 0.1956977
-0.013882041 0.0676338 0.06860231 0.17742687 -0.09359267 0.10319829 0.038845364 0.082061246
0.04754206 0.042408653 0.061402302 -0.057558693 -0.16205952 -0.04983247 0.08714605 0.05460398
-0.03385928 0.05383287 0.056060284 -0.054834258 -0.06681972 0.014669357 -0.13616799 0.004455258
-0.02469632 0.029163355 0.036409847 0.1641282 -0.10709497 -0.016825784 0.065764375 0.020501172
0.136841 0.18734056 0.04801057 -0.10790336 -0.061490756 0.059200753 0.15691087 -0.10130422
0.059254594 0.15298887 0.10115728 0.17333505 -0.05135879 -0.038570356 -0.025966246 0.13609964
0.16804142 0.18841843 0.075372875 0.011183566 0.080416195 -0.046553995 0.07287574 0.015370692
-0.011293214 -0.043652058 0.05336963 0.038384896 0.12403519 0.029527595 -0.14466998 -0.04477352
0.046946153 0.14239046 0.05352817 0.06100985 0.036094494 -0.021914829 0.0019682134 0.1501971
-0.022063464 0.03390621 -0.0011415605 -0.028713102 0.05840923 -0.11576962 -0.0670003 -0.037917636
-0.11724781 -0.050637785 0.05585306 -0.31560367 -0.0015725279 -0.09390664 0.124778666 -0.0144638885
-0.06783819 -0.08167568 -0.19873025 -0.16504346 0.09213473 0.031114744 -0.051756404 0.0898915
-0.051878773 0.014932008 -0.058996852 -0.034104716 -0.10503948 -0.1618855 -0.05748033 0.05865561
-0.11325551 -0.17642912 -0.11101122 0.036119778 0.14695743 0.05088254 -0.039300688 0.13585235
0.21987307 0.027375367 0.074815474 0.014684605 0.016774775 0.014737911 -0.0827544 0.023577217

tcn_encoder_x.network.0.conv2.bias f4 [64]
00000000: fae5 013c 4f20 1c3d 759f 883d b691 b0bc
00000010: 7d77 833d 834b b13c 796a 4a3c a04b 2ebd
00000020: c483 af3a 017e 2dbc 06df 5c3d dbed 393b
00000030: 2424 af3b b64f 8dbc a247 2e3d 6613 0e3c
00000040: 94df 753c 1a96 4dbd fe04 3c3d 5dbf 67bd
00000050: 4770 9e3c 1d2c 2d3d e7d7 7dbd 1d25 1a3c
00000060: 7a20 35bc 21cb b2bc 371b 533d 23b6 6a3d
00000070: 4afe 223d 22f1 793d 5a60 563c 11b2 0f3d
00000080: 10ff 6fbd 2df9 1cbd c303 543d 55d9 823d
00000090: b5b5 2dbd eb2f 31bc 883f a93c b53d ebbc
000000a0: f281 e6bc 7fe5 a5bc 7d07 21bd 741f 563c
000000b0: 972c 5d3d 424b 6fbd 2749 78bd e4f9 2dbd
000000c0: 3dff 433d 827c ba3c c258 44bd c150 433d
000000d0: 57b0 4dbd bada 62bd 658b 3ebd b8d9 aabc
000000e0: 72ac 10bd 898a 0a3d 2186 0cbc 24fd 2e3d
000000f0: a60c f6bc f5ec 2e3d eeee aa3a 5182 fc3c
0.007928366 0.03811675 0.06671039 -0.021553855 0.06419275 0.021642452 0.012354487 -0.04255259
0.001339071 -0.010589124 0.05392363 0.0028370533 0.0053448845 -0.017249923 0.042548783 0.008671617
0.015006918 -0.050191976 0.0459032 -0.056578983 0.019340647 0.042278398 -0.06197348 0.009408263
-0.011055106 -0.021825375 0.051539626 0.057302605 0.03979329 0.061020978 0.013084495 0.035081927
-0.058592856 -0.03832357 0.0517614 0.06389109 -0.042409617 -0.010814647 0.020660177 -0.028715948
-0.028138135 -0.020251034 -0.039313782 0.013069022 0.053997602 -0.05842138 -0.06061664 -0.042474642
0.047850836 0.022764448 -0.04793621 0.047684435 -0.050217 -0.055384375 -0.046519656 -0.02085577
-0.035320707 0.033823524 -0.008576901 0.042721882 -0.030035328 0.04270645 0.0013041177 0.030823858

tcn_encoder_x.network.0.bn2.weight f4 [64]
00000000: 636c 813f 9490 6f3f c05f 753f 5be0 793f
00000010: 6c65 783f ff4a 723f 15cf 6d3f 6ea6 743f
00000020: ede8 713f 56c6 7a3f faf4 813f 94c8 6a3f
00000030: fd56 853f f740 813f 7c65 803f f4c7 6c3f
00000040: 8e47 743f c235 6e3f caeb 753f 19b5 7a3f
00000050: 0a02 803f ac87 603f 852e 753f b677 6e3f
00000060: 269e 7d3f 5f5c 813f 6ba1 6a3f b35a 713f
00000070: b740 713f ef26 843f 3bca 793f 73c6 853f
00000080: 3a50 813f 36bd 823f ec1e 783f 3fdd 783f
00000090: e42c 7c3f b59c 833f 788e 673f a9dd 7f3f
000000a0: 44a7 653f b50b 703f 54db 823f b61c 813f
000000b0: 36b6 803f f373 853f 212d 723f 0d4d 8a3f
000000c0: c026 683f 0363 883f 620e 773f f2b1 7b3f
000000d0: c64a 783f b671 773f 5f10 733f e3b4 803f
000000e0: 341b 7e3f 2951 783f 837f 7a3f 34de 6f3f
000000f0: dcf0 763f 5405 793f 07e6 803f f846 6e3f
1.0111202 0.93579984 0.9584923 0.97607964 0.9702976 0.94645685 0.9289411 0.9556645
0.9449604 0.97958887 1.0152886 0.9171231 1.0417172 1.0097951 1.003097 0.92492604
0.95421684 0.9305078 0.9606291 0.97932583 1.0000622 0.8770702 0.9577411 0.93151414
0.9906944 1.0106314 0.91652554 0.9427902 0.9423937 1.0324382 0.97574204 1.0451187
1.0102608 1.0213993 0.96922183 0.97212595 0.98506 1.0282198 0.90451765 0.999476
0.8970835 0.93767864 1.0223184 1.0086887 1.0055606 1.042601 0.9460011 1.0804764
0.9068413 1.0655216 0.9650632 0.983184 0.96989095 0.96657884 0.94946855 1.0055202
0.9926026 0.9699884 0.9785082 0.9369843 0.9646127 0.97273755 1.0070199 0.9307704

tcn_encoder_x.network.0.bn2.bias f4 [64]
00000000: d5a1 02be 0407 94bd 6fbf d9bd b6f4 9cbc
00000010: d035 4cbc 3e1d 9cbd 2a90 f8bd 0d86 51bd
00000020: e4e7 86bd 76a7 65bd dcab d2bd 115c 3bbd
00000030: c768 debd 85cb b3bd eb45 76bc 4d94 17be
00000040: 28e3 11be 2467 d7bd 2508 dfbd cf23 4abd
00000050: 304e f7bc 5406 d9bd c622 25be fffd 12be
00000060: ee4d 5ebd 6735 fbbc 6ab7 27be 3521 ffbd
00000070: 7c2b fa3b 0661 a1bd fffc 70bd a165 f1bd
00000080: 5773 a2bd af70 cfbc 1dd6 033d 9179 abbd
00000090: ff00 0fbd 4132 6abd d32e 1bbe ae27 86bc
000000a0: 8ab5 f8bd d8ff 7cbd 9849 9fbd 2948 84bd
000000b0: 688e 50bd 8f61 e9bc fbc8 d3bd c080 9bbd
000000c0: e2ea 04be e8ab 92bc 103d d4bd 3088 42bd
000000d0: c56a 4cbd 2bef b8bd 3bfd 38bd 58fd 55bd
000000e0: 183c 9dbd aa93 e8bc 0577 b1bd bb7f 07bd
000000f0: b750 f7bd 4a42 40bd a9ba a8bb 40b5 c3bd
-0.12757047 -0.072279006 -0.10632216 -0.019159656 -0.012464002 -0.07622765 -0.12136872 -0.05115323
-0.065871984 -0.056067906 -0.10286686 -0.0457421 -0.108598284 -0.08779053 -0.015031318 -0.14802666
-0.1424681 -0.105177194 -0.10890225 -0.049350556 -0.03018865 -0.1059691 -0.16126546 -0.14354704
-0.05427354 -0.030665113 -0.1637856 -0.124575056 0.0076345783 -0.07879834 -0.058835026 -0.11786962
-0.079321556 -0.025322286 0.032186616 -0.08372796 -0.03491306 -0.057176832 -0.15154581 -0.016376343
-0.12144001 -0.06176743 -0.07777709 -0.06459076 -0.05091706 -0.028488902 -0.10341068 -0.075929165
-0.12980226 -0.017904237 -0.10363209 -0.04749316 -0.04990651 -0.09029993 -0.045163374 -0.05224356
-0.076774776 -0.028390724 -0.08665279 -0.033080798 -0.12075942 -0.04693822 -0.0051492047 -0.09556055

tcn_encoder_x.network.0.bn2.running_mean f4 [64]
00000000: f943 a93f d7b2 32bf f865 df3d c86f ddbd
00000010: 2707 873e 8c8e 37be b8e0 8ebb 1718 afbe
00000020: c57e 433f 0e9c 133e caba 2cbf de90 50bf
00000030: 4a86 94bf 70fb 48bf ea5d 0ebf b0ba fabb
00000040: 769b b1bf 2c7b 1cbf cdc8 583e 2f1f be3f
00000050: 0c46 49bf aa41 b0be fcf5 9c3f 01fd 98bf
00000060: 2832 d1bf 02ad 89bf d95a 08be 5c46 66bf
00000070: 8355 47bf d6e5 cb3f 41c1 17be 3c6e 5ebe
00000080: 642b 3f3f 2cb7 97be b926 90bf 9d2e 6b3f
00000090: 1cbe 90bf 087e 73bf aa85 85bf e1f0 883f
000000a0: 2d18 1fbf dd28 823f ab34 afbe df81 94bf
000000b0: d877 2ebe 7120 de3c cfc2 07bf 522b 0540
000000c0: 11bd bc3f dac3 60bf 1c4e 4fbf a720 23be
000000d0: be89 9ebf 9dba 36be aa08 533f 490b d9be
000000e0: 1811 ffbe d8ce 08bf 82ce 99be 04bf 93bd
000000f0: 2768 2f3e 8937 59bf dbf0 dd3e 3895 633f
1.3223869 -0.6980414 0.10908121 -0.10812336 0.26372644 -0.17925471 -0.0043602847 -0.34198067
0.7636531 0.14414999 -0.6747252 -0.8147105 -1.1603482 -0.78508663 -0.5561205 -0.0076516494
-1.3875568 -0.61125445 0.2117035 1.4853266 -0.7862251 -0.34425098 1.2262568 -1.1952211
-1.6343431 -1.0755923 -0.13315906 -0.8995111 -0.77864856 1.5929515 -0.14819814 -0.21721739
0.74675584 -0.29631937 -1.1261817 0.91868 -1.1308017 -0.95114183 -1.0431416 1.069851
-0.62146264 1.016872 -0.3421987 -1.1602134 -0.17037904 0.027115079 -0.5303163 2.080769
1.4745198 -0.87798846 -0.8097856 -0.15930425 -1.2385786 -0.17844625 0.82435095 -0.42391422
-0.4981773 -0.5344062 -0.30040365 -0.07214168 0.17129575 -0.84850365 0.4334782 0.88899565

tcn_encoder_x.network.0.bn2.running_var f4 [64]
00000000: f5d5 863f dad6 b73f 702c de3f 70df 2840
00000010: ed71 1640 72ff 2e40 3843 803f 4297 d03f
00000020: 648d ed3f 23e3 1840 35f2 c03f 18bf 3f40
00000030: 9489 6e3f cd2e d13f f4ec 1040 797a b03f
00000040: ab26 0e40 2cad 9c3f 39a9 963f 35e6 e53f
00000050: 2d02 af3f a7e8 3840 9bd7 ea3f e065 d13f
00000060: 37cb 0240 ed56 0940 b746 b03f 77a3 d23f
00000070: 8c39 fd3f 64b6 953f ad75 d03f ac03 f63f
00000080: 5f53 fb3f 163e 0640 1ef3 4340 be0e b83f
00000090: 9867 843f e877 bf3f 48a5 4640 e993 d93f
000000a0: d48f 1140 3d73 3740 868e c13f c330 db3f
000000b0: 5ce2 933f 4d37 d03f b6d4 883f b431 ed3f
000000c0: 4a8b 913f 88c8 4a40 3f13 0240 7a36 a33f
000000d0: b95c fe3f af4a 8d3f 5d28 ee3f d477 a03f
000000e0: 79bc 683f 9662 0740 c432 933f 2cbe 3340
000000f0: 23b8 863f e225 983f 9256 e13f 5b2c af3f
1.0534045 1.4362442 1.7357311 2.6386375 2.3507035 2.7343411 1.0020514 1.629616
1.8558774 2.3888633 1.5073916 2.9960384 0.9317868 1.6342407 2.2644625 1.3787376
2.22111 1.2240348 1.1770393 1.7960879 1.3672539 2.8892 1.8347048 1.6359215
2.0436532 2.1459305 1.377158 1.6456136 1.9783187 1.1696286 1.6285912 1.921987
1.9634818 2.0975394 3.0617137 1.4379499 1.0344114 1.4958467 3.103838 1.6998264
2.2744036 2.8664086 1.512162 1.7124256 1.1553454 1.6266876 1.0689914 1.8530793
1.1370633 3.1684895 2.0324247 1.2751 1.9872047 1.1038417 1.8606068 1.2536569
0.90912586 2.1153922 1.1499867 2.8084822 1.0524944 1.1886561 1.7604544 1.3685411

tcn_encoder_x.network.0.relu2.weight f4 [64]
00000000: 161d b83d 76bd 663e 463f c93d a139 023e
00000010: 8984 073e 263b 713e 228c ca3d c7ed 143e
00000020: ca6a 5b3e a103 cb3d 0f49 863e 7335 173e
00000030: 96e0 733e a271 4e3e 6837 ae3d 5f48 393e
00000040: 366f 983e c260 333e d2a9 233e b969 103e
00000050: efd4 ab3d 831f 903e 8d7e 0a3e 367a 1e3e
00000060: d6f3 eb3e 3f1e 183e dad3 9a3d 38ec 733e
00000070: fcec ed3e ae5a 813d 3307 223e e45c 823e
00000080: 1157 6a3d f911 343e fbd7 dd3e a4b7 433e
00000090: 6b5c 7d3e 35ab 803d 9d20 423e 600c 823e
000000a0: 2c46 2c3e 6d49 4c3e b6b6 823d 9b20 0b3e
000000b0: 7e0d 043e e949 033e bee8 3d3e 5745 d53d
000000c0: acd2 713e 7636 9c3e f651 6f3e 5e3b 1f3e
000000d0: ce4c 6e3e 4f46 6c3e bd10 143e 191e 5f3e
000000e0: 25ee 213e f28b 8b3e a1c8 2a3e 3d2f d83d
000000f0: d2c2 993e dad6 a53e 08b3 2c3e 4d5f 253e
0.08989923 0.22533211 0.098265216 0.12717296 0.13234152 0.2355772 0.098900095 0.1454383
0.21427456 0.099128015 0.26227614 0.14766483 0.23816141 0.20160535 0.08506662 0.18094014
0.29772347 0.17517379 0.1598275 0.1410283 0.08390223 0.28149042 0.13524838 0.15476307
0.4608447 0.14855288 0.07559939 0.23820579 0.46469867 0.06316124 0.15823059 0.25461495
0.05721194 0.17584981 0.43328843 0.19113022 0.24742286 0.06282655 0.18957753 0.25400066
0.16823643 0.19949885 0.063825056 0.13586657 0.12895772 0.12821163 0.18545815 0.10413616
0.23615521 0.305103 0.2337111 0.1554999 0.23271486 0.23073696 0.1445951 0.21788825
0.15813501 0.27255207 0.16678096 0.10555885 0.3003145 0.3239048 0.1686517 0.16149636

tcn_encoder_x.network.0.layer2.weight f4 [64, 20]
00000000: 0000 803f 0000 803f 0000 803f 0000 803f
00000010: 0000 803f 0000 803f 0000 803f 0000 803f
00000020: 0000 803f 0000 803f 0000 803f 0000 803f
00000030: 0000 803f 0000 803f 0000 803f 0000 803f
00000040: 0000 803f 0000 803f 0000 803f 0000 803f
00000050: 0000 803f 0000 803f 0000 803f 0000 803f
00000060: 0000 803f 0000 803f 0000 803f 0000 803f
00000070: 0000 803f 0000 803f 0000 803f 0000 803f
00000080: 0000 803f 0000 803f 0000 803f 0000 803f
00000090: 0000 803f 0000 803f 0000 803f 0000 803f
000000a0: 0000 803f 0000 803f 0000 803f 0000 803f
000000b0: 0000 803f 0000 803f 0000 803f 0000 803f
000000c0: 0000 803f 0000 803f 0000 803f 0000 803f
000000d0: 0000 803f 0000 803f 0000 803f 0000 803f
000000e0: 0000 803f 0000 803f 0000 803f 0000 803f
000000f0: 0000 803f 0000 803f 0000 803f 0000 803f
00000100: 0000 803f 0000 803f 0000 803f 0000 803f
00000110: 0000 803f 0000 803f 0000 803f 0000 803f
00000120: 0000 803f 0000 803f 0000 803f 0000 803f
00000130: 0000 803f 0000 803f 0000 803f 0000 803f
00000140: 0000 803f 0000 803f 0000 803f 0000 803f
00000150: 0000 803f 0000 803f 0000 803f 0000 803f
00000160: 0000 803f 0000 803f 0000 803f 0000 803f
00000170: 0000 803f 0000 803f 0000 803f 0000 803f
00000180: 0000 803f 0000 803f 0000 803f 0000 803f
00000190: 0000 803f 0000 803f 0000 803f 0000 803f
000001a0: 0000 803f 0000 803f 0000 803f 0000 803f
000001b0: 0000 803f 0000 803f 0000 803f 0000 803f
000001c0: 0000 803f 0000 803f 0000 803f 0000 803f
000001d0: 0000 803f 0000 803f 0000 803f 0000 803f
000001e0: 0000 803f 0000 803f 0000 803f 0000 803f
000001f0: 0000 803f 0000 803f 0000 803f 0000 803f
00000200: 0000 803f 0000 803f 0000 803f 0000 803f
00000210: 0000 803f 0000 803f 0000 803f 0000 803f
00000220: 0000 803f 0000 803f 0000 803f 0000 803f
00000230: 0000 803f 0000 803f 0000 803f 0000 803f
00000240: 0000 803f 0000 803f 0000 803f 0000 803f
00000250: 0000 803f 0000 803f 0000 803f 0000 803f
00000260: 0000 803f 0000 803f 0000 803f 0000 803f
00000270: 0000 803f 0000 803f 0000 803f 0000 803f
00000280: 0000 803f 0000 803f 0000 803f 0000 803f
00000290: 0000 803f 0000 803f 0000 803f 0000 803f
000002a0: 0000 803f 0000 803f 0000 803f 0000 803f
000002b0: 0000 803f 0000 803f 0000 803f 0000 803f
000002c0: 0000 803f 0000 803f 0000 803f 0000 803f
000002d0: 0000 803f 0000 803f 0000 803f 0000 803f
000002e0: 0000 803f 0000 803f 0000 803f 0000 803f
000002f0: 0000 803f 0000 803f 0000 803f 0000 803f
00000300: 0000 803f 0000 803f 0000 803f 0000 803f
00000310: 0000 803f 0000 803f 0000 803f 0000 803f
00000320: 0000 803f 0000 803f 0000 803f 0000 803f
00000330: 0000 803f 0000 803f 0000 803f 0000 803f
00000340: 0000 803f 0000 803f 0000 803f 0000 803f
00000350: 0000 803f 0000 803f 0000 803f 0000 803f
00000360: 0000 803f 0000 803f 0000 803f 0000 803f
00000370: 0000 803f 0000 803f 0000 803f 0000 803f
00000380: 0000 803f 0000 803f 0000 803f 0000 803f
00000390: 0000 803f 0000 803f 0000 803f 0000 803f
000003a0: 0000 803f 0000 803f 0000 803f 0000 803f
000003b0: 0000 803f 0000 803f 0000 803f 0000 803f
000003c0: 0000 803f 0000 803f 0000 803f 0000 803f
000003d0: 0000 803f 0000 803f 0000 803f 0000 803f
000003e0: 0000 803f 0000 803f 0000 803f 0000 803f
000003f0: 0000 803f 0000 803f 0000 803f 0000 803f
1.0 1.0 1.0 1.0 1.0 1.0 1.0 1.0
1.0 1.0 1.0 1.0 1.0 1.0 1.0 1.0
1.0 1.0 1.0 1.0 1.0 1.0 1.0 1.0
1.0 1.0 1.0 1.0 1.0 1.0 1.0 1.0
1.0 1.0 1.0 1.0 1.0 1.0 1.0 1.0
1.0 1.0 1.0 1.0 1.0 1.0 1.0 1.0
1.0 1.0 1.0 1.0 1.0 1.0 1.0 1.0
1.0 1.0 1.0 1.0 1.0 1.0 1.0 1.0
1.0 1.0 1.0 1.0 1.0 1.0 1.0 1.0
1.0 1.0 1.0 1.0 1.0 1.0 1.0 1.0
1.0 1.0 1.0 1.0 1.0 1.0 1.0 1.0
1.0 1.0 1.0 1.0 1.0 1.0 1.0 1.0
1.0 1.0 1.0 1.0 1.0 1.0 1.0 1.0
1.0 1.0 1.0 1.0 1.0 1.0 1.0 1.0
1.0 1.0 1.0 1.0 1.0 1.0 1.0 1.0
1.0 1.0 1.0 1.0 1.0 1.0 1.0 1.0
1.0 1.0 1.0 1.0 1.0 1.0 1.0 1.0
1.0 1.0 1.0 1.0 1.0 1.0 1.0 1.0
1.0 1.0 1.0 1.0 1.0 1.0 1.0 1.0
1.0 1.0 1.0 1.0 1.0 1.0 1.0 1.0
1.0 1.0 1.0 1.0 1.0 1.0 1.0 1.0
1.0 1.0 1.0 1.0 1.0 1.0 1.0 1.0
1.0 1.0 1.0 1.0 1.0 1.0 1.0 1.0
1.0 1.0 1.0 1.0 1.0 1.0 1.0 1.0
1.0 1.0 1.0 1.0 1.0 1.0 1.0 1.0
1.0 1.0 1.0 1.0 1.0 1.0 1.0 1.0
1.0 1.0 1.0 1.0 1.0 1.0 1.0 1.0
1.0 1.0 1.0 1.0 1.0 1.0 1.0 1.0
1.0 1.0 1.0 1.0 1.0 1.0 1.0 1.0
1.0 1.0 1.0 1.0 1.0 1.0 1.0 1.0
1.0 1.0 1.0 1.0 1.0 1.0 1.0 1.0
1.0 1.0 1.0 1.0 1.0 1.0 1.0 1.0

tcn_encoder_x.network.0.layer2.bias f4 [64, 20]
00000000: 0000 0000 0000 0000 0000 0000 0000 0000
00000010: 0000 0000 0000 0000 0000 0000 0000 0000
00000020: 0000 0000 0000 0000 0000 0000 0000 0000
00000030: 0000 0000 0000 0000 0000 0000 0000 0000
00000040: 0000 0000 0000 0000 0000 0000 0000 0000
00000050: 0000 0000 0000 0000 0000 0000 0000 0000
00000060: 0000 0000 0000 0000 0000 0000 0000 0000
00000070: 0000 0000 0000 0000 0000 0000 0000 0000
00000080: 0000 0000 0000 0000 0000 0000 0000 0000
00000090: 0000 0000 0000 0000 0000 0000 0000 0000
000000a0: 0000 0000 0000 0000 0000 0000 0000 0000
000000b0: 0000 0000 0000 0000 0000 0000 0000 0000
000000c0: 0000 0000 0000 0000 0000 0000 0000 0000
000000d0: 0000 0000 0000 0000 0000 0000 0000 0000
000000e0: 0000 0000 0000 0000 0000 0000 0000 0000
000000f0: 0000 0000 0000 0000 0000 0000 0000 0000
00000100: 0000 0000 0000 0000 0000 0000 0000 0000
00000110: 0000 0000 0000 0000 0000 0000 0000 0000
00000120: 0000 0000 0000 0000 0000 0000 0000 0000
00000130: 0000 0000 0000 0000 0000 0000 0000 0000
00000140: 0000 0000 0000 0000 0000 0000 0000 0000
00000150: 0000 0000 0000 0000 0000 0000 0000 0000
00000160: 0000 0000 0000 0000 0000 0000 0000 0000
00000170: 0000 0000 0000 0000 0000 0000 0000 0000
00000180: 0000 0000 0000 0000 0000 0000 0000 0000
00000190: 0000 0000 0000 0000 0000 0000 0000 0000
000001a0: 0000 0000 0000 0000 0000 0000 0000 0000
000001b0: 0000 0000 0000 0000 0000 0000 0000 0000
000001c0: 0000 0000 0000 0000 0000 0000 0000 0000
000001d0: 0000 0000 0000 0000 0000 0000 0000 0000
000001e0: 0000 0000 0000 0000 0000 0000 0000 0000
000001f0: 0000 0000 0000 0000 0000 0000 0000 0000
00000200: 0000 0000 0000 0000 0000 0000 0000 0000
00000210: 0000 0000 0000 0000 0000 0000 0000 0000
00000220: 0000 0000 0000 0000 0000 0000 0000 0000
00000230: 0000 0000 0000 0000 0000 0000 0000 0000
00000240: 0000 0000 0000 0000 0000 0000 0000 0000
00000250: 0000 0000 0000 0000 0000 0000 0000 0000
00000260: 0000 0000 0000 0000 0000 0000 0000 0000
00000270: 0000 0000 0000 0000 0000 0000 0000 0000
00000280: 0000 0000 0000 0000 0000 0000 0000 0000
00000290: 0000 0000 0000 0000 0000 0000 0000 0000
000002a0: 0000 0000 0000 0000 0000 0000 0000 0000
000002b0: 0000 0000 0000 0000 0000 0000 0000 0000
000002c0: 0000 0000 0000 0000 0000 0000 0000 0000
000002d0: 0000 0000 0000 0000 0000 0000 0000 0000
000002e0: 0000 0000 0000 0000 0000 0000 0000 0000
000002f0: 0000 0000 0000 0000 0000 0000 0000 0000
00000300: 0000 0000 0000 0000 0000 0000 0000 0000
00000310: 0000 0000 0000 0000 0000 0000 0000 0000
00000320: 0000 0000 0000 0000 0000 0000 0000 0000
00000330: 0000 0000 0000 0000 0000 0000 0000 0000
00000340: 0000 0000 0000 0000 0000 0000 0000 0000
00000350: 0000 0000 0000 0000 0000 0000 0000 0000
00000360: 0000 0000 0000 0000 0000 0000 0000 0000
00000370: 0000 0000 0000 0000 0000 0000 0000 0000
00000380: 0000 0000 0000 0000 0000 0000 0000 0000
00000390: 0000 0000 0000 0000 0000 0000 0000 0000
000003a0: 0000 0000 0000 0000 0000 0000 0000 0000
000003b0: 0000 0000 0000 0000 0000 0000 0000 0000
000003c0: 0000 0000 0000 0000 0000 0000 0000 0000
000003d0: 0000 0000 0000 0000 0000 0000 0000 0000
000003e0: 0000 0000 0000 0000 0000 0000 0000 0000
000003f0: 0000 0000 0000 0000 0000 0000 0000 0000
0.0 0.0 0.0 0.0 0.0 0.0 0.0 0.0
0.0 0.0 0.0 0.0 0.0 0.0 0.0 0.0
0.0 0.0 0.0 0.0 0.0 0.0 0.0 0.0
0.0 0.0 0.0 0.0 0.0 0.0 0.0 0.0
0.0 0.0 0.0 0.0 0.0 0.0 0.0 0.0
0.0 0.0 0.0 0.0 0.0 0.0 0.0 0.0
0.0 0.0 0.0 0.0 0.0 0.0 0.0 0.0
0.0 0.0 0.0 0.0 0.0 0.0 0.0 0.0
0.0 0.0 0.0 0.0 0.0 0.0 0.0 0.0
0.0 0.0 0.0 0.0 0.0 0.0 0.0 0.0
0.0 0.0 0.0 0.0 0.0 0.0 0.0 0.0
0.0 0.0 0.0 0.0 0.0 0.0 0.0 0.0
0.0 0.0 0.0 0.0 0.0 0.0 0.0 0.0
0.0 0.0 0.0 0.0 0.0 0.0 0.0 0.0
0.0 0.0 0.0 0.0 0.0 0.0 0.0 0.0
0.0 0.0 0.0 0.0 0.0 0.0 0.0 0.0
0.0 0.0 0.0 0.0 0.0 0.0 0.0 0.0
0.0 0.0 0.0 0.0 0.0 0.0 0.0 0.0
0.0 0.0 0.0 0.0 0.0 0.0 0.0 0.0
0.0 0.0 0.0 0.0 0.0 0.0 0.0 0.0
0.0 0.0 0.0 0.0 0.0 0.0 0.0 0.0
0.0 0.0 0.0 0.0 0.0 0.0 0.0 0.0
0.0 0.0 0.0 0.0 0.0 0.0 0.0 0.0
0.0 0.0 0.0 0.0 0.0 0.0 0.0 0.0
0.0 0.0 0.0 0.0 0.0 0.0 0.0 0.0
0.0 0.0 0.0 0.0 0.0 0.0 0.0 0.0
0.0 0.0 0.0 0.0 0.0 0.0 0.0 0.0
0.0 0.0 0.0 0.0 0.0 0.0 0.0 0.0
0.0 0.0 0.0 0.0 0.0 0.0 0.0 0.0
0.0 0.0 0.0 0.0 0.0 0.0 0.0 0.0
0.0 0.0 0.0 0.0 0.0 0.0 0.0 0.0
0.0 0.0 0.0 0.0 0.0 0.0 0.0 0.0

tcn_encoder_x.network.0.net.0.weight f4 [64, 3, 3]
00000000: f8db 3abe aa96 a13c 0c1b 973d 1cea cc3b
00000010: f9d2 d73c 7fac efbc 9ccb d5bd 6ce1 843d
00000020: 9e39 fe3c 1736 953e ead7 acbd 235a b2bd
00000030: 5b3a 14bc e7be 19bd df81 e3bc 8d93 3f3e
00000040: 35b8 be3c 3559 57be 2436 c3bd efaa 07bb
00000050: 385f f73d 4c87 36bd 561b 5f3d 16cb 3abd
00000060: 2e91 1a3e 8091 27bc 5daf 81ba b2b3 4dbd
00000070: 3a52 9dbd c90a 5dbe 46b9 473e d428 993c
00000080: e6a6 08be 99d8 a93c c5af dabd 299a b43c
00000090: 4bd9 ed3c eec4 6fbc c20c 83ba 9d8e 05be
000000a0: 6515 22be 98d6 12be 88e1 05be c8ea 6c3d
000000b0: abde 4cbd d17d 2b3e 0349 babd 615d 94bd
000000c0: 1ff1 cfbd 0a44 57bc a841 db3c 1dae 99bd
000000d0: 8eb0 213d f158 02bc 1f38 e5bc f5ee f03d
000000e0: 571c 61bb 7954 783b 2e34 ee3c 200c 013e
000000f0: 2729 0c3c 1afa 3a3d aa5f b9bd 3364 853e
00000100: 4912 de3d 7f6f 37bc ddb3 773d 0d23 c33d
00000110: 904b df3c 3e38 b2bd 4e8d c7bd 7230 ddbd
00000120: da37 fabc 8af8 78bd b7fa bd3d d101 fdbd
00000130: ba98 8a3d 196a 223d 5265 10be d4be 0dbd
00000140: 9eb9 2e3e 81a8 8fbd 69d5 80bc 68a8 af3d
00000150: f4db ecbd 132b 9e3d a1db 2c3d 5477 afbc
00000160: 9e29 b53d 8736 86bd 6d4e f4ba efbd 00be
00000170: 8901 343e ac65 c23d 9b87 7dbd 13d1 73bd
00000180: e998 15be 252b 773d 93fd 8f3d 7316 4b3c
00000190: cfb7 b53d 9a99 c03c 3b0d cf39 aca1 413e
000001a0: cb9b 7b3d 51b7 bcbd 48fa dcbd de8f 8b3d
000001b0: 129c 8cbe 0d41 8ebd f07d d4bc e583 c2bd
000001c0: c3c9 90bb caf5 023e 9cb0 5abd 2d42 e33b
000001d0: 8967 3a3d 8211 08be 643d 8d3d 7a58 473d
000001e0: 5a47 da3d 8746 a4bd d98b aabc 6305 0239
000001f0: b0a0 9c3d a307 97bd e745 723d 742f 79bd
00000200: a66b 953a 5e38 c93d 3d4e c1bc 6179 a4bd
00000210: 2734 0ebe c6e0 a33d b929 673d c482 bd3c
00000220: c633 85bc b4bd 76be ac38 da3d 6a6d 44be
00000230: ff82 13bd f50c 4f3d 2881 f4bd 33a0 7dbe
00000240: 2b19 ba3d 5aba 2ebd 051c 36bd 3762 113e
00000250: ca12 14be f3ea 0d3c ab55 883d 555e 2fbd
00000260: 44ac c2bc 8294 e4bc 81f0 993d e6e3 c1bc
00000270: f0c5 04be 36b7 07be 3ce0 25bd 7e32 183d
00000280: 500d dbbd c54f 9fbc baea 85bd ff60 d9bc
00000290: a343 0bbe 2ab6 323e d3a2 8d3d ba3f 97bd
000002a0: eff0 4ebb 3bd2 333b d7c7 23bb 1624 bdbd
000002b0: 662a f6bd 6bda 12be a890 ee3d 7cc8 503d
000002c0: 079b f53d 8564 793e 2269 813b 7e3b 81bd
000002d0: 1968 94bc 1aec a13d 5858 51bc 5733 873e
000002e0: 418d 223d 1df2 bcbd 9721 203b 7d5f d2bd
000002f0: 7739 c3bd e425 81bd aebe 11bd ad55 ddbc
00000300: e549 3fbe 8dc9 9dbd b839 123d 10bd 413d
00000310: 8f92 d9bd fde4 c73c f852 15be 7467 243e
00000320: 7e71 c9ba 9718 233d 9887 d4bc 6a1c abbb
00000330: 2480 1ebd 9cfa 2fbc d494 423d 84a8 ee3d
00000340: bdc9 11bd 4e3b 5fbd 525a febd d588 f63d
00000350: 8ccb 613b 1420 843c 650c f83d bbc8 03be
00000360: 3c72 b9bd e1f0 f53d 6c55 473d 70a3 233e
00000370: 22df e1bd 57a8 85bd a707 713d 5bfb d83d
00000380: 9acc 11be fc63 c33c 76c1 8ebd 9528 3a3d
00000390: a5dc b83d a7a2 8ebb f8d2 abbd b99a 1d3e
000003a0: f70a 4f3d 118c 50be 897e 4b3c 79e8 793e
000003b0: 326c 25bc 6492 1fbe 577a a43c 8a39 b7bd
000003c0: 53f0 acbc 8a7a 9c3d b8fd 8fbd 1fa9 5a3e
000003d0: a9c5 73bd 6e43 1dbe cf62 e53d 75f6 2f3b
000003e0: 0991 e5bd 1044 483c 8a5e 3e3d 24be ebbc
000003f0: f113 053d 66e9 623b 4945 1bbd ca66 c33d
-0.18247974 0.019725163 0.07378206 0.006253494 0.026345717 -0.029257057 -0.10439226 0.06488308
0.031033333 0.2914283 -0.0843962 -0.087085985 -0.009047116 -0.037535574 -0.027771888 0.1870863
0.023281196 -0.21030124 -0.09531811 -0.002070125 0.120787084 -0.044562623 0.05446943 -0.045603834
0.15094444 -0.010227561 -0.0009894181 -0.0502202 -0.07681699 -0.21586145 0.1950427 0.018696226
-0.13344917 0.020733165 -0.10678057 0.022046166 0.029034277 -0.014634354 -0.0009998309 -0.13042684
-0.15828474 -0.14339674 -0.13074315 0.057841092 -0.05001704 0.16747214 -0.09095957 -0.07244373
-0.10153412 -0.01313878 0.026764706 -0.075039126 0.039475016 -0.007955776 -0.027980862 0.117643274
-0.0034349167 0.0037892147 0.029077616 0.12602282 0.008554733 0.04564867 -0.090514496 0.26053008
0.10843331 -0.011196016 0.060474265 0.0952817 0.02725771 -0.087021336 -0.097437486 -0.10800256
-0.03054421 -0.0607839 0.09276336 -0.12353862 0.067674115 0.039651964 -0.1410115 -0.034605816
0.17062995 -0.070145614 -0.015726762 0.08577043 -0.1156539 0.077230595 0.042201642 -0.021419205
0.088458285 -0.06553369 -0.0018639095 -0.12572454 0.1757871 0.094920486 -0.0618969 -0.05952556
-0.14609112 0.06034388 0.07030787 0.012395489 0.08872949 0.023510743 0.00039491974 0.18909329
0.061427873 -0.09214652 -0.10789925 0.0681455 -0.27462822 -0.06946001 -0.025938958 -0.09497813
-0.004418583 0.12789074 -0.053391084 0.006935379 0.045508895 -0.13287929 0.06896475 0.048668362
0.106581405 -0.080212645 -0.020818638 0.00012399773 0.07647836 -0.073745035 0.059148695 -0.06083627
0.001139988 0.09825204 -0.023596877 -0.08030964 -0.13887082 0.080018565 0.056436274 0.023133643
-0.016260039 -0.24095803 0.106553406 -0.19182363 -0.0360136 0.050549466 -0.11938697 -0.24768142
0.09086832 -0.042658187 -0.044460315 0.14197622 -0.14460292 0.008661973 0.06656965 -0.04281457
-0.023763783 -0.027902845 0.075165756 -0.02366824 -0.12966132 -0.13253483 -0.04049705 0.037157528
-0.106958985 -0.019447217 -0.06538911 -0.02653551 -0.1360002 0.17452303 0.06915822 -0.07385202
-0.0031576713 0.002743854 -0.002499094 -0.092353985 -0.120198056 -0.14341132 0.11648685 0.050972447
0.1199246 0.24354751 0.0039493004 -0.06310175 -0.018116044 0.07906361 -0.01277741 0.26406357
0.03968549 -0.09225867 0.0024434084 -0.10272119 -0.09532445 -0.06306055 -0.035582237 -0.027018392
-0.18680532 -0.077044584 0.035699576 0.047299445 -0.10623657 0.024401182 -0.14582431 0.16055089
-0.0015368906 0.039818373 -0.025943562 -0.005221893 -0.038696423 -0.010740902 0.047505215 0.116532356
-0.035592783 -0.054499917 -0.12419571 0.120378174 0.0034453599 0.016128577 0.12111739 -0.12869541
-0.090549916 0.12008835 0.04866545 0.15980315 -0.11028887 -0.06526249 0.05884519 0.10594817
-0.14238206 0.023851387 -0.069704935 0.04544886 0.090264596 -0.0043528858 -0.083898485 0.15391053
0.050547566 -0.20365931 0.012420305 0.24405088 -0.010096597 -0.15583187 0.020077867 -0.089465216
-0.02111069 0.0764056 -0.07030815 0.21353577 -0.059514675 -0.15357754 0.11200487 0.002684978
-0.11209304 0.012223259 0.04647688 -0.02877719 0.03248972 0.003462398 -0.037907872 0.0954109

tcn_encoder_x.network.0.net.0.bias f4 [64]
00000000: a419 39be 9afe 3f3d 1919 09bd 1ebe 85be
00000010: 0052 f73c 5bc2 5cbe 0cbd 32be a667 e8bd
00000020: bb16 0ebe 7d1b 5fbe e843 213e 60a8 563d
00000030: 2483 35be 0c6d 88be 432b 59be a44f af3c
00000040: fcb8 4fbe cede 90be 8a05 7fbe 55b5 833e
00000050: 5b46 88be 354e 7fbe 8c4d ac3d 0a03 6b3e
00000060: 0111 6fbe c5ea b1be 08f6 083e b926 e7bd
00000070: 5174 1cbe 3a71 023d 3d12 43be 5328 a03e
00000080: 668b 913e 80d7 823c c545 1bbe da5c c83b
00000090: 5d45 0bbd 9b9e a3bc 04f7 9fbc a137 ac3d
000000a0: 1232 8dbc 770a 613d 531b 6fbe b42f ffbd
000000b0: 910a 4c3d 0043 3fbe b322 77bb 5f64 133e
000000c0: 2a4f 423e 8f68 46be ea59 12be 89a9 3d3e
000000d0: bddb 8dbe 9259 ebbc 7a34 cebd 53cd 8d3e
000000e0: 991b 983d 1a48 973e 8a25 a7bd 5add 61be
000000f0: e468 7fbe 9d97 483d 4b07 89be 210b b13c
-0.18076187 0.046873666 -0.0334712 -0.2612161 0.030190468 -0.21558516 -0.17454928 -0.11347894
-0.13875858 -0.2178783 0.1574856 0.05240667 -0.17725807 -0.26645696 -0.2120791 0.02140028
-0.2028541 -0.28294986 -0.24904457 0.25724283 -0.26616177 -0.24932177 0.084132284 0.22950378
-0.2334633 -0.34749427 0.13375103 -0.11286683 -0.15278746 0.031846263 -0.19049926 0.31280765
0.28426665 0.015971899 -0.15163334 0.0061145844 -0.034001697 -0.01997309 -0.019526966 0.08409048
-0.01723579 0.05494162 -0.23350267 -0.124602705 0.049814764 -0.18677902 -0.0037709891 0.14393757
0.18975511 -0.19375823 -0.14292112 0.18521704 -0.2770671 -0.028729234 -0.10068603 0.27695712
0.07427139 0.29547197 -0.08161457 -0.22057095 -0.24942356 0.048972715 -0.26763377 0.021611752

tcn_encoder_x.network.0.net.2.weight f4 [64]
00000000: 9b16 733f 6a45 713f d6e2 783f e6a7 643f
00000010: 242f 753f 9a70 753f 1720 683f 1e41 693f
00000020: 1615 973f dc74 823f acdf 6a3f 4e63 773f
00000030: fafe 713f e57d 8b3f 94ec 8c3f f3d8 723f
00000040: e843 923f b8d0 6c3f 6a3d 663f 5fe2 6b3f
00000050: 57ac 733f 3635 6d3f a3ed 823f 11a2 8d3f
00000060: 50bd 6f3f bc57 ad3f 4033 6f3f eed4 863f
00000070: 47e5 833f b35f 613f a9b8 573f 445d 703f
00000080: c22d 673f fe4b 9e3f 5c5d 703f cfcf 703f
00000090: 2131 863f 8277 5c3f 0fa1 623f c9d8 753f
000000a0: 7bfc 883f 982d 633f 73cd 753f 47ef 753f
000000b0: b59f 703f 576b 783f 104d 7e3f ea4d 833f
000000c0: c981 6b3f 28cf 663f 1d71 783f 4f1d 633f
000000d0: 714e 6a3f 9fdd 5f3f 99e5 703f 03f3 6c3f
000000e0: b8c9 6c3f 689c 733f d10a 773f 8fbb 773f
000000f0: d260 643f adc6 743f 7de9 743f 637a 793f
0.9495637 0.9424654 0.97221124 0.8931869 0.95775056 0.9587494 0.90673965 0.91114986
1.180331 1.0191913 0.91747546 0.966359 0.9452969 1.0897795 1.1009698 0.9486229
1.1426973 0.9250598 0.8993746 0.9214229 0.95184845 0.9265932 1.0228771 1.1065084
0.9364824 1.35424 0.93437576 1.0533731 1.0304345 0.8803665 0.84266144 0.9389231
0.90304196 1.2366941 0.93892455 0.9406709 1.0483743 0.86119854 0.88527006 0.9603391
1.0702051 0.88741446 0.96016616 0.96068233 0.93993694 0.9703879 0.9933634 1.0258152
0.9199491 0.90159845 0.970476 0.88716596 0.9152594 0.8744754 0.9410034 0.92558306
0.924953 0.9516053 0.9650088 0.96770567 0.89210236 0.95615655 0.95668775 0.9745237
